{"name": "soh_algorithm", "layers": [{"class_name": "InputLayer", "config": {"batch_input_shape": [null, 1, 10], "dtype": "float32", "sparse": false, "ragged": false, "name": "capacity sequence"}, "name": "capacity sequence", "inbound_nodes": []}, {"class_name": "InputLayer", "config": {"batch_input_shape": [null, 1, 4], "dtype": "float32", "sparse": false, "ragged": false, "name": "peak vector"}, "name": "peak vector", "inbound_nodes": []}, {"class_name": "Concatenate", "config": {"name": "concatenate_12", "trainable": true, "dtype": "float32", "axis": -1}, "name": "concatenate_12", "inbound_nodes": [[["capacity sequence", 0, 0, {}], ["peak vector", 0, 0, {}]]]}, {"class_name": "Dense", "config": {"name": "dense_12", "trainable": true, "dtype": "float32", "units": 32, "activation": "tanh", "use_bias": true, "kernel_initializer": {"class_name": "GlorotUniform", "config": {"seed": null}}, "bias_initializer": {"class_name": "Zeros", "config": {}}, "kernel_regularizer": null, "bias_regularizer": null, "activity_regularizer": null, "kernel_constraint": null, "bias_constraint": null}, "name": "dense_12", "inbound_nodes": [[["concatenate_12", 0, 0, {}]]]}, {"class_name": "InputLayer", "config": {"batch_input_shape": [null, 1, 2], "dtype": "float32", "sparse": false, "ragged": false, "name": "charging/discharging mode"}, "name": "charging/discharging mode", "inbound_nodes": []}, {"class_name": "Concatenate", "config": {"name": "concatenate_13", "trainable": true, "dtype": "float32", "axis": -1}, "name": "concatenate_13", "inbound_nodes": [[["dense_12", 0, 0, {}], ["charging/discharging mode", 0, 0, {}]]]}, {"class_name": "Dense", "config": {"name": "dense_13", "trainable": true, "dtype": "float32", "units": 64, "activation": "tanh", "use_bias": true, "kernel_initializer": {"class_name": "GlorotUniform", "config": {"seed": null}}, "bias_initializer": {"class_name": "Zeros", "config": {}}, "kernel_regularizer": null, "bias_regularizer": null, "activity_regularizer": null, "kernel_constraint": null, "bias_constraint": null}, "name": "dense_13", "inbound_nodes": [[["concatenate_13", 0, 0, {}]]]}, {"class_name": "LSTM", "config": {"name": "lstm_6", "trainable": true, "dtype": "float32", "return_sequences": false, "return_state": false, "go_backwards": false, "stateful": false, "unroll": false, "time_major": false, "units": 128, "activation": "tanh", "recurrent_activation": "sigmoid", "use_bias": true, "kernel_initializer": {"class_name": "GlorotUniform", "config": {"seed": null}, "shared_object_id": 11}, "recurrent_initializer": {"class_name": "Orthogonal", "config": {"gain": 1.0, "seed": null}, "shared_object_id": 12}, "bias_initializer": {"class_name": "Zeros", "config": {}, "shared_object_id": 13}, "unit_forget_bias": true, "kernel_regularizer": null, "recurrent_regularizer": null, "bias_regularizer": null, "activity_regularizer": null, "kernel_constraint": null, "recurrent_constraint": null, "bias_constraint": null, "dropout": 0.0, "recurrent_dropout": 0.0, "implementation": 1}, "name": "lstm_6", "inbound_nodes": [[["dense_13", 0, 0, {}]]]}, {"class_name": "Dense", "config": {"name": "category_result", "trainable": true, "dtype": "float32", "units": 5, "activation": "softmax", "use_bias": true, "kernel_initializer": {"class_name": "GlorotUniform", "config": {"seed": null}}, "bias_initializer": {"class_name": "Zeros", "config": {}}, "kernel_regularizer": null, "bias_regularizer": null, "activity_regularizer": null, "kernel_constraint": null, "bias_constraint": null}, "name": "category_result", "inbound_nodes": [[["lstm_6", 0, 0, {}]]]}], "input_layers": [["capacity sequence", 0, 0], ["peak vector", 0, 0], ["charging/discharging mode", 0, 0]], "output_layers": [["category_result", 0, 0]]}